2118121014/2118121014_Final/beyin8.onnx (onnx, 137567 bytes, 7 tensors)

network_body._body_endoder.seq_layers.0.weight f4 [128, 128]
000000 f2 94 c3 3d f8 4c 43 be 68 af 31 bd 5c ee a1 be
       0.095498934 -0.1907233 -0.04338017 -0.31627166
000010 3b 07 00 3e 5c 53 25 be f1 8e 8e 3b b0 1d 83 bd
       0.12502758 -0.1614508 0.004350536 -0.06402147
000020 a1 6c 77 3c 9e 49 27 be c7 7e 3b 3e 00 f4 41 be
       0.015101583 -0.16336676 0.1831008 -0.18940735
000030 49 d4 ae 3d 5d 6e 5a be 89 0f a2 bd 85 03 7b be
       0.08536584 -0.21331163 -0.07913119 -0.24513061
000040 ee 6f 14 3e 88 77 bd bc 33 1e ae bd a8 f2 88 be
       0.14495823 -0.023128286 -0.08501854 -0.26747632
000050 64 39 fa 3d e5 7e 9e bc fa 1b 42 be c0 ff e6 bd
       0.12217978 -0.019347617 -0.18955985 -0.11279249
000060 ed d6 02 bb 52 a9 6f bd d9 dd 33 3e 0d c7 36 3c
       -0.0019964532 -0.058511086 0.17565097 0.011155856
000070 3b 0f 2a 3e 1a 78 12 be 9a 2b a7 bd 04 79 8d 3c
       0.16607372 -0.14303628 -0.08162613 0.017269619
000080 04 2b 44 3e 69 92 d6 bd 64 08 e0 bc be e4 af bd
       0.19157034 -0.10477144 -0.027347751 -0.08588551
000090 bc f0 1c bc 58 c8 f6 3c ed d4 81 3e 25 a2 97 bd
       -0.00957888 0.030124828 0.25357762 -0.074039735
0000a0 f0 3e 45 3e 71 3e 3c be 0f c5 f0 bd 08 d0 67 bd
       0.1926229 -0.18383195 -0.11756336 -0.05659488
0000b0 65 e5 24 3e e9 f1 28 be 26 8b e7 3d 49 4a 8d bd
       0.16103132 -0.16498531 0.11305837 -0.068989344
0000c0 63 9d 3f 3a dc 62 6c bd 27 7c 83 bd 69 7b 3b be
       0.0007309524 -0.057711467 -0.064201646 -0.18308796
0000d0 08 fa ee 3d aa e1 0a be 4b 1b 5b be 2b d1 1e 3d
       0.116687834 -0.13562647 -0.2139713 0.038773697
0000e0 8d 80 fb ba 8f c1 7f be a2 c4 20 be b8 b7 48 be
       -0.0019188091 -0.2497618 -0.1570001 -0.19601333
0000f0 3b b9 5c 3c ef ef ad bd 55 81 ce bc f3 ba 3c bb
       0.013471897 -0.08493029 -0.025208155 -0.0028797954
000100 2a aa 98 3d d0 38 49 be 10 b2 f9 bd 79 55 63 be
       0.07454331 -0.19650578 -0.12192166 -0.22200574
000110 d2 f6 b9 3c 65 a3 2b be 45 0b 51 3e 24 ad 4b 3d
       0.0227007 -0.16761549 0.20414455 0.049725667
000120 c3 d1 f4 bb 05 fc 11 be 9a 2a b0 bd 48 02 81 be
       -0.0074712946 -0.14256294 -0.086018756 -0.25197053
000130 21 54 b7 3d 90 5d 36 be be 50 60 be 14 cd 37 be
       0.08951593 -0.17809129 -0.219058 -0.17949325
000140 fd 87 19 3e 1a 43 97 bd e3 21 2d bc 6f 8d ad be
       0.14993282 -0.073858455 -0.010567161 -0.33896968
000150 70 a3 40 3e fe d7 71 be 7c 4f f8 3d e9 95 cf 3d
       0.18812346 -0.2361755 0.121245354 0.10136015
000160 06 10 86 bc 50 9e c8 3b 3e a3 d1 bd ae d6 4f be
       -0.016365062 0.006122388 -0.10236214 -0.20296738
000170 09 a2 9a 3e 01 3c b6 bd cb 5f 71 be 92 ef 29 3d
       0.30201748 -0.088981636 -0.23571698 0.041488238
000180 02 6d 5d 3e 40 a6 33 3d 00 69 ca 3d f3 74 7e be
       0.21623614 0.04385972 0.098833084 -0.248493
000190 52 9f a4 3d 00 c9 23 be 98 fb f8 3d be a3 33 be
       0.080382004 -0.15994644 0.12157363 -0.17542931
0001a0 aa ec 00 3d 6a cf 59 3e 58 35 31 be 0a c6 2b be
       0.0314757 0.21270528 -0.17305505 -0.16774765
0001b0 5d ee 10 3e 8e 24 b0 bd fe 3a a1 bd 5c 54 38 3d
       0.14153428 -0.08600722 -0.0787258 0.045002326
0001c0 16 02 ae 3c 42 a9 e4 3d c1 93 3a be 8c e4 a4 bd
       0.021241229 0.11165096 -0.18220426 -0.08051404
0001d0 09 1b 77 3d 19 54 55 be 8f b9 28 bd 88 d5 cf 3c
       0.060328517 -0.20832862 -0.041192587 0.025370374
0001e0 71 a2 e8 bd 5c 0c 8b bb fc d3 31 bc 36 ac 41 be
       -0.11359108 -0.0042434167 -0.010853764 -0.1891335
0001f0 91 37 0d bc f9 18 65 3d 66 df b1 bd 0e 5f 0a be
       -0.008619205 0.05593202 -0.08685188 -0.13512823
000200 63 8f 55 be 84 64 5a 3d 28 f8 1f bd 67 35 02 bc
       -0.20855479 0.053318515 -0.03905502 -0.007947302
000210 1c 5c a9 bd de 1c 30 bd de da 53 3d d0 48 d4 bd
       -0.082695216 -0.04299628 0.0517224 -0.103654504
000220 c4 e7 a8 3d 57 47 10 bb 47 2c 87 3d e1 cd 56 3d
       0.08247331 -0.0022015178 0.06600242 0.052442435
000230 35 89 ad bd 34 36 2f bd f5 18 d6 3d 0c 85 36 3e
       -0.08473436 -0.0427763 0.10453979 0.17824191
000240 7d 79 e9 bc dd 20 8a be 16 2e 1a 3e 00 7f 14 be
       -0.028500313 -0.26978198 0.15056643 -0.14501572
000250 48 e2 ce bc 73 3a de bd 46 74 41 3d 2d 41 a4 bd
       -0.025254384 -0.10850992 0.047230028 -0.08020244
000260 e6 22 06 bc 73 51 ba bd 7a 4e e6 bc d3 dd 90 bc
       -0.008187031 -0.090975665 -0.028113592 -0.017683899
000270 ce 1f 40 3d f8 b8 39 be 98 e5 92 bd 3a 1f b9 bd
       0.04690533 -0.18136966 -0.07172698 -0.09039159
000280 d8 96 61 3e 19 1a 6b bd ce 94 53 bd 54 25 2f 3c
       0.22030199 -0.057397936 -0.051655583 0.010690052
000290 29 35 39 3c bb c6 3e be 4f ce 37 3d 32 27 07 3c
       0.011304178 -0.18630497 0.044874486 0.008249091
0002a0 71 d9 2b ba bc 4b c3 bc 16 87 ac bd 7d 2e bb 3d
       -0.00065555336 -0.023839824 -0.08424203 0.09139726
0002b0 76 17 96 3d 6d dd 39 be 59 4a 3d 3d 8f 3f e8 3d
       0.073286936 -0.18150873 0.04621348 0.11340248
0002c0 fd 73 20 3e 40 49 9b bd f9 a8 b1 3d 74 39 ea 3d
       0.15669246 -0.07582331 0.08674807 0.114367396
0002d0 9e 55 be bb 61 d2 1a be 92 31 1e bd 94 3b 75 bd
       -0.005808546 -0.15119316 -0.038621493 -0.05987127
0002e0 dc 4f 06 bd a7 3e 09 be c8 73 95 bd 7a af e7 bb
       -0.032791004 -0.13402806 -0.07297474 -0.007070479
0002f0 5e 3d ba bd 9e cb 41 be ff 7f 8d bd e6 6d 03 3e
       -0.09093736 -0.1892533 -0.06909179 0.12834892
000300 b5 b6 f4 3d d0 86 00 3e 5a 5a fa 3b 7a ef 0e be
       0.11948911 0.12551427 0.0076401653 -0.1395854
000310 d9 dc 9c bb d3 1f 3c bd 74 3f e9 3b d7 98 c9 3d
       -0.0047870693 -0.045928787 0.00711816 0.09843605
000320 d9 ab e9 bd df b0 c7 3c 0a 66 20 be 57 f8 75 bd
       -0.114097305 0.02437633 -0.15663925 -0.06005129
000330 96 63 3a bd 11 23 10 be 35 7b 43 3c 34 ef a8 3e
       -0.04550513 -0.14075877 0.01193123 0.32994998
000340 d4 69 51 be 31 24 9a bd 3f ef 97 3c 6f 49 0b be
       -0.20450526 -0.07526434 0.018546699 -0.13602231
000350 2a 03 28 bd 9c 00 12 be 47 73 ea bd 73 7c 4c 3e
       -0.041018642 -0.14258045 -0.11447769 0.19969349
000360 d5 1e c2 bb 2c 5c 72 3d 52 5a 4c bd 5b 52 51 be
       -0.0059240856 0.059169933 -0.049890824 -0.20441572
000370 2a 60 e8 3c 3e 60 6a bd 26 56 88 3d 42 23 61 3e
       0.028366167 -0.05722069 0.066570565 0.21986106
000380 ab 7b 04 3c db bf ee bc f1 84 a4 3c 39 20 d9 bd
       0.008086125 -0.029144218 0.020082923 -0.10601849
000390 14 a7 b0 bd 0f 08 9b 3d 68 ba 16 3e c0 36 91 3d
       -0.086256176 0.075698964 0.14719546 0.07090521
0003a0 24 ce 50 be 4e fe 77 3d f5 51 03 3d 47 ed 32 be
       -0.20391136 0.06054526 0.032060582 -0.17473327
0003b0 70 52 1b 3d 3e 13 3e be ce fc 2c bd 19 d1 a2 bd
       0.037920415 -0.18562028 -0.04223328 -0.079500385
0003c0 af 84 be 3d c9 d2 a3 3d ef ad a7 bd 52 e3 84 be
       0.09302651 0.079991885 -0.08187472 -0.25954682
0003d0 03 1a 90 3d 64 2e 37 be 2c 7b 28 bd 5c 03 04 3e
       0.07036211 -0.1788879 -0.04113309 0.12891906
0003e0 45 02 8c be ce 1e 1b 3e 80 60 cd bd c9 8b 98 be
       -0.27345482 0.1514847 -0.100281715 -0.29794148
0003f0 ad 44 2b 3e 63 b8 10 bd d9 9e a3 3c 6d 3a a1 bd
       0.16725416 -0.035332095 0.019973205 -0.07872472

network_body._body_endoder.seq_layers.0.bias f4 [128]
000000 f6 0f 39 bc f0 7a 13 bd 8e d0 88 bd a4 1b d6 bc
       -0.011295309 -0.036005914 -0.06680404 -0.026136227
000010 ea 8e ad ba 6a 1a 86 bc 4e 7d a3 bd 54 49 69 bd
       -0.0013241444 -0.016370017 -0.07982884 -0.056954697
000020 97 a6 c0 bc d9 c5 00 bc d3 e2 b2 3b f7 b1 89 3c
       -0.023516936 -0.007859671 0.0054591685 0.016808493
000030 00 67 0d bd 71 39 28 3d 06 f7 28 bd 7c 20 80 bd
       -0.034522057 0.041070405 -0.041251205 -0.06256196
000040 eb bc 28 bc e1 d6 d0 3c 95 96 57 bd 55 fb ec bc
       -0.010298948 0.025493087 -0.05263384 -0.028928438
000050 44 73 ad bc 0d 72 2e bb 71 06 52 bd 5a 02 62 3c
       -0.021173127 -0.0026618273 -0.051275674 0.013794506
000060 8a 5e 9d 3c 24 5c 2b bd 45 28 16 bd 43 1c 2f bd
       0.019210119 -0.04183592 -0.036659498 -0.04275156
000070 61 14 c6 bc 7a e4 af bc 64 0d 5a bc 73 46 19 bd
       -0.02417964 -0.02147125 -0.013308857 -0.0374207
000080 a3 01 b4 ba 9c 34 80 bd 25 b1 8c bd de f9 aa bd
       -0.0013733398 -0.062600344 -0.06869725 -0.0834844
000090 2b 06 c8 3c 91 65 31 bd ac a9 12 bd da da bd bc
       0.024417004 -0.043309752 -0.035806343 -0.023175646
0000a0 3d 04 b0 bc 15 d4 6a bd 38 3d 8d bd 4b 06 62 bd
       -0.021486396 -0.057331163 -0.06896442 -0.055181783
0000b0 0c 3b 50 bc d8 98 90 3a c6 50 5d 3c 32 67 40 bc
       -0.01270939 0.0011031879 0.013508027 -0.011743354
0000c0 e8 68 5f bd 74 f5 be bc a2 6c cf bc 27 bf aa ba
       -0.054543406 -0.0233104 -0.025320355 -0.0013026939
0000d0 a9 32 1a bd 35 02 3e bd 60 cc 24 bd b2 85 c5 bb
       -0.03764597 -0.046388824 -0.04023397 -0.0060279006
0000e0 a9 23 b1 bc 4d 6d ff bc d3 53 52 bd 5d 1a 4a bd
       -0.02162345 -0.031180048 -0.051349472 -0.04934155
0000f0 13 ae 53 bd 36 59 33 3c 29 2a 3d bc 81 fd 94 bd
       -0.051679682 0.0109465625 -0.011545696 -0.072749145
000100 5e cb f0 bc ab 0b d8 bd 1f 72 36 bd 20 19 0c bd
       -0.029393848 -0.105491005 -0.044542428 -0.03420365
000110 e7 4a 8d bc fc b9 0a bd ca 56 c6 39 34 eb 3f bb
       -0.01724763 -0.033868775 0.00037830166 -0.002928448
000120 44 32 3d 3b 8c e4 8b 3b 0c 12 c6 bb 7d d3 be bc
       0.0028869072 0.0042691883 -0.006044632 -0.023294205
000130 a4 03 ac bb c8 55 13 bd c8 1e 59 bb 33 ea 08 bd
       -0.0052494574 -0.03597048 -0.003312992 -0.033426475
000140 63 b9 0d bd 22 74 f8 bc 98 ed 3a bd e4 41 76 bd
       -0.034600627 -0.030328814 -0.045636743 -0.060121432
000150 bd e8 c2 bb 00 31 3f bd 8f 18 1b bc 13 2a 01 bd
       -0.0059481547 -0.04667759 -0.009466304 -0.031534266
000160 a6 07 25 bd 35 1c c4 bc 8f 33 d3 bc 92 ac 46 3b
       -0.040290497 -0.023939231 -0.025781421 0.0030315262
000170 59 86 92 3c d5 2d ed 3b fb c8 5a 3c cb 18 60 bd
       0.017886328 0.0072381296 0.013353582 -0.054711144
000180 b6 98 df 3c 88 37 79 bb f8 4d c3 bc 13 45 16 bd
       0.027294498 -0.0038027484 -0.02384089 -0.036686968
000190 35 f7 0c bd 6d db fb bc 20 22 22 3b 75 71 4c bc
       -0.034415442 -0.030744279 0.0024739578 -0.012478222
0001a0 af ec 78 bd 14 c2 88 bc 72 14 0e bc 47 34 b7 bc
       -0.060772594 -0.016694106 -0.008671867 -0.022363795
0001b0 db 0a 33 bd 48 3d e4 bb 01 ce 86 bd a0 1c bb bc
       -0.043711524 -0.006965313 -0.06582261 -0.022840798
0001c0 bb f0 85 3b 0a 8b d1 bc a0 2b 5f bc 24 51 cf bc
       0.004087535 -0.025578994 -0.013621241 -0.025307246
0001d0 c6 b4 92 3c 6a 3b 08 bd 6e 7e 43 bd 93 dd b6 bc
       0.017908465 -0.033259787 -0.047727995 -0.022322452
0001e0 83 4a 2d bd 72 bc 7c 3d ab fa e8 bc 50 ae 9c bc
       -0.042307388 0.061703153 -0.02843984 -0.019126087
0001f0 cd ad 57 bd 02 43 30 bd 10 3d a8 bc c0 bb 57 3c
       -0.052655984 -0.043032654 -0.02053693 0.013167322

network_body._body_endoder.seq_layers.2.weight f4 [128, 128]
000000 2d 1e bb 3d fb 15 6b bd ac 29 d6 bd 6e 8f 88 bc
       0.09136615 -0.05739401 -0.10457167 -0.016669955
000010 64 81 1a be 09 41 6d bd 7e 69 04 be e9 41 11 be
       -0.15088421 -0.05792335 -0.12930867 -0.14185299
000020 99 b4 bd bb 4e 2e 54 3d ce d7 61 3d e5 e8 72 3c
       -0.005789351 0.051801972 0.055137448 0.014826034
000030 cc 95 e7 bd c8 0d 4c be 93 7d cc bd e6 12 05 3d
       -0.11307868 -0.19927132 -0.09984889 0.032488726
000040 b6 fa 6a be 3f ce 96 3d e5 32 72 3d f5 0a ae 3d
       -0.22947201 0.07363557 0.059130568 0.08498184
000050 0e 44 83 bd 7f 18 db bd f5 71 12 3e 4c 17 48 3d
       -0.06409465 -0.10698032 0.14301284 0.048850343
000060 20 48 89 bc e1 56 9e bd a4 69 a8 bb f6 db fd bd
       -0.016758025 -0.077314146 -0.0051395465 -0.1239547
000070 c5 84 61 3d d7 db 89 3c 59 20 21 be 55 9b 6d bd
       0.05505826 0.01682846 -0.15734996 -0.058009464
000080 49 d5 2d be 88 39 aa bd 9e df 34 be f2 a0 07 3d
       -0.16975893 -0.083117545 -0.17663428 0.033112474
000090 f7 93 15 3d 12 1e 27 bd c2 b2 c8 3d f4 ec be bd
       0.036518063 -0.04080016 0.0979972 -0.09322539
0000a0 fb f7 38 bb 90 f5 75 bc d8 b7 87 bd 7e 81 a5 bd
       -0.002822398 -0.01501216 -0.06626862 -0.08081339
0000b0 6e fc 06 be f6 11 29 bd 9b a0 c4 bd 8d 18 3e bd
       -0.13182232 -0.041276895 -0.096009456 -0.046410132
0000c0 df dd 6f bd 82 b5 4b ba 98 2c 8b be ac 06 0a 3e
       -0.058561202 -0.0007770882 -0.2718246 0.13479108
0000d0 9a df 08 bc fa de 49 bd 85 6a 9d 3d 4c a9 de bd
       -0.008354092 -0.049284913 0.076863326 -0.108721346
0000e0 11 00 53 bd 2f 5e 43 bb 6d f6 57 3d e6 c2 42 3d
       -0.051513735 -0.0029810776 0.052725244 0.04754915
0000f0 0e fa 7a 3b 75 74 bc bc 14 2a b1 bd a9 22 d6 bc
       0.0038296017 -0.02300475 -0.08650604 -0.026139574
000100 f6 25 6c bc 12 06 c7 3d b7 a0 0c 3d 9a 2f 04 be
       -0.0144133475 0.09717955 0.034332957 -0.12908784
000110 d0 76 81 3d 83 86 9a ba cb fe 4a 3d 9f 1a a2 3d
       0.0632149 -0.0011789355 0.049559396 0.07915234
000120 47 14 a1 bd 1d ea 9d 3d 87 6b f3 bd 78 96 5f 3d
       -0.07865196 0.07710669 -0.118857436 0.054586858
000130 f9 f0 a0 3d 3b 13 64 be f6 ad a8 bc e3 a3 a2 bd
       0.07858462 -0.22272961 -0.020590764 -0.07941415
000140 88 6a a8 bd 53 40 3d 3e 93 be be ba 3a 21 33 3e
       -0.08223444 0.18481569 -0.0014552645 0.17493144
000150 71 0c 5a 3e d0 db 33 bd d4 8d e5 bc 3c 67 bd 3d
       0.21293809 -0.0439108 -0.02802173 0.09248206
000160 96 76 13 be 9b 54 fd 3d 07 6e d5 bd 98 64 b1 bd
       -0.14400706 0.12369653 -0.10421377 -0.08661765
000170 73 ea 2c be 39 2b 00 be a1 bc 6b 3d 55 34 9b 3d
       -0.1688631 -0.12516488 0.057552937 0.07578341
000180 9b a7 cc bc 28 81 48 3c 97 c3 ce 3d 97 1b 9b 3d
       -0.024982264 0.0122378245 0.100958996 0.07573622
000190 04 f7 f8 3c f8 c4 95 3d df 09 b3 bb a6 48 43 3d
       0.030391224 0.073129594 -0.005463823 0.047676705
0001a0 4d b7 b4 bd 4f dd 0b 3e e6 94 1c bd 68 23 f2 3d
       -0.08824024 0.13658641 -0.038227938 0.118231595
0001b0 ba 1e b6 ba a5 43 65 3c d8 24 e8 3c ba 11 2a be
       -0.0013894655 0.0139931785 0.028337881 -0.16608325
0001c0 22 12 3f bd fb 9d 93 be 31 29 b3 bd 1a dd d2 bd
       -0.046648152 -0.28831467 -0.08748091 -0.10296078
0001d0 f4 59 42 be d3 e3 79 bc 3b c8 af bd a1 4b a9 3b
       -0.18979627 -0.015252071 -0.08583113 0.0051664864
0001e0 7c 9f b5 3d c3 d1 3f be ee f8 03 3d 02 ec 48 3d
       0.0886831 -0.18732361 0.03221982 0.0490532
0001f0 ab f5 d3 3d b6 10 f2 bc 7d e1 65 bc e5 bd 28 bd
       0.10349592 -0.029548984 -0.014030811 -0.041196723
000200 23 a1 5c 3c 6d 58 51 bd 31 5f eb bd 4f 00 54 3c
       0.013466152 -0.05110972 -0.11492766 0.012939527
000210 80 50 5c 3d 75 dc fa bd de d9 8f 3d b6 29 07 be
       0.05378771 -0.1224908 0.07023977 -0.13199505
000220 5e 64 a5 bd 27 69 84 3d b7 9e 1f be 7e f3 22 3e
       -0.08075784 0.06465369 -0.15587889 0.15913197
000230 e6 89 01 3d 00 fe c0 bb 3c ea b5 bd ad c3 87 bd
       0.03162565 -0.005889654 -0.08882567 -0.06629119
000240 51 2d 07 3e 96 e6 9d bd e5 c8 5b 3d 95 e3 12 3e
       0.1320088 -0.077099964 0.053658385 0.14344628
000250 77 c2 10 bd f0 a2 58 be 14 b5 94 3d b9 57 b7 bd
       -0.035341706 -0.21155906 0.072611004 -0.08952279
000260 7f 1c 9d bd eb 03 5a 3d 73 1f 75 bd fa f1 95 bd
       -0.07671451 0.053226393 -0.059844445 -0.07321544
000270 db 74 5c 3d 1c 43 fa bc f5 04 48 3d 6c b3 15 3e
       0.05382238 -0.030549578 0.048832852 0.14619225
000280 5a d4 a1 bd 0e b5 be bd 76 de 44 3e 67 9d 23 be
       -0.07901831 -0.09311877 0.19225487 -0.15978013
000290 de 34 1b be 30 c0 e6 3d 3c d5 17 be 19 df a0 bd
       -0.15156886 0.112671256 -0.14827436 -0.078550525
0002a0 b4 2a e7 bd 7e 25 c1 3d 2d 2f 94 3d d5 2d 22 3d
       -0.11287442 0.09430979 0.072355606 0.03959449
0002b0 59 ae 30 be a2 1b 87 bd 42 e9 99 bd 67 b8 69 bd
       -0.17254008 -0.065970674 -0.075151935 -0.057060625
0002c0 dd 76 44 bd 77 a9 f2 3c 1a 8f 28 bd d4 2d 53 bd
       -0.04796492 0.029621823 -0.041152097 -0.051557377
0002d0 c2 b2 bb bd 96 88 21 3e 2c 43 52 3e 4d 62 98 3d
       -0.09164955 0.1577476 0.20533437 0.074406244
0002e0 72 84 fe bd c0 a2 3e bd 04 89 0c be 7d d8 92 bd
       -0.12427606 -0.04654193 -0.13724142 -0.07170198
0002f0 5a b7 7b bc 8d 7e e9 bd 6d d8 67 bd 36 2a 30 be
       -0.015363539 -0.11401091 -0.056602884 -0.17203602
000300 6c 20 04 3d f7 39 d0 3d 8f 44 35 bd 13 65 4d 3d
       0.032257482 0.10167306 -0.044254836 0.05014522
000310 87 3f c6 bc ac 6e 72 3d 28 c6 99 bd 8b c3 ae 3c
       -0.024200214 0.059187576 -0.075084984 0.021333477
000320 9a 6a 82 be 88 e6 a3 bc 96 dc 00 be dc 16 a9 3d
       -0.25471956 -0.020007387 -0.12584147 0.08256313
000330 aa 3f cf bd af f5 c1 3b 83 7f cf bd 5a 1c 8b bc
       -0.10119565 0.0059191803 -0.10131743 -0.016981293
000340 aa 4b e2 bc 30 da cb bd 2f 52 de bc 25 ac 44 3d
       -0.02762397 -0.09953725 -0.027138798 0.048015732
000350 94 1b 0f bd 42 db 42 be 3f 4b 6e bd 8f 1a 65 3b
       -0.03493841 -0.19028953 -0.05817723 0.0034958457
000360 42 28 19 be 4e 4d 06 bd e3 c6 b8 bd 91 7f d3 3b
       -0.14956763 -0.032788567 -0.0902231 0.006454416
000370 5d 3e e3 bd a6 1c ab ba 37 bb 69 be 05 5a 16 3e
       -0.11095879 -0.0013054803 -0.22825323 0.14682777
000380 9a ae e8 bd 94 6b d6 bd 9d 4a 9e bd c5 00 bf 3d
       -0.113614276 -0.10469738 -0.07729075 0.09326319
000390 1f 06 4f 3d d3 36 f4 3c 58 c3 c3 3c 93 98 60 bb
       0.050542947 0.029811298 0.023896858 -0.0034270629
0003a0 54 be d2 3c fe f4 45 3b 31 98 df 3b b9 60 ca bd
       0.025725521 0.0030205841 0.0068235626 -0.0988173
0003b0 d0 a5 c8 bd 73 9b fc bb 43 91 30 bb a3 ad e0 bd
       -0.09797251 -0.0077089607 -0.0026942051 -0.109706186
0003c0 c9 a2 f0 3d 3a 38 0d 3c 42 4d 80 bd 59 40 c7 3c
       0.11749799 0.0086193625 -0.06264736 0.024322676
0003d0 fc 64 e8 bc e8 b4 5d bd 69 14 64 3c ea 64 b1 3c
       -0.028368466 -0.054127604 0.013920882 0.021654565
0003e0 96 c0 23 bd e0 c1 de 3b b9 ff 01 bd 26 96 8a bd
       -0.039978586 0.006798014 -0.031738017 -0.0676692
0003f0 c7 4e cb 3c ef 6d 5f be 14 aa bb bc 92 d3 ee 3c
       0.024817837 -0.2181928 -0.022908248 0.029153619

network_body._body_endoder.seq_layers.2.bias f4 [128]
000000 91 ba 98 3c ac 68 03 bd c6 57 73 3c 1f 59 c7 bc
       0.01864365 -0.032082245 0.01485247 -0.024334488
000010 25 9d e5 bc cf b1 4b bd 14 88 0e bd e2 55 33 bc
       -0.028029034 -0.04973012 -0.034797743 -0.010945769
000020 7d 83 27 bd 66 91 4d bd 9f e8 cb bb 19 1b 9a bc
       -0.04089688 -0.05018749 -0.006222799 -0.01881175
000030 78 49 52 bd 26 b8 ca bc 69 8f 89 b8 9e de a1 bc
       -0.051339597 -0.024746012 -6.559381e-05 -0.019759472
000040 c0 ba 02 bd ca 99 33 bd fe 74 52 bd 9c 07 1f bc
       -0.03191638 -0.043847837 -0.051381104 -0.009706404
000050 3b 3f b4 bc cf f4 5f bd 15 00 e5 bc 48 f9 16 bd
       -0.022002807 -0.054676827 -0.02795414 -0.036858827
000060 34 e0 1f bd af fe fd bc a3 f9 d3 bc ae 51 86 ba
       -0.039032176 -0.031005232 -0.025875872 -0.0010247731
000070 02 19 3f 39 05 52 a7 bb 72 8a be 3a bc 3b d4 3a
       0.00018224496 -0.005106213 0.001453711 0.0016192119
000080 6d bc 20 bd 1d 4e cd bc 81 52 f3 bc 91 d0 27 bc
       -0.039242197 -0.025061661 -0.029702427 -0.010242597
000090 95 9a f5 bb a6 f5 91 3b 60 53 e2 bc 3d f4 9a bc
       -0.0074952343 0.0044543324 -0.027627647 -0.01891529
0000a0 e7 78 96 bb 8f d7 20 bd 00 7f 22 bd 4b b0 8f bc
       -0.0045920494 -0.039268073 -0.039671898 -0.017540118
0000b0 b7 6f ab bc 35 d8 5e bc b1 a3 ca bc 89 9d 7f 3c
       -0.020927293 -0.013601352 -0.024736257 0.015601524
0000c0 9b 84 9b bc 07 68 3f bd 4c 22 3a 3b 9d dd 3c bd
       -0.01898413 -0.046730068 0.002840179 -0.046109784
0000d0 26 47 eb bc 70 c2 06 3c 89 60 8c 3b a7 a9 07 bd
       -0.02872045 0.008225068 0.004283969 -0.033120777
0000e0 59 bc 17 bd 4a 1d 85 bc ce 52 01 3b 09 a9 1c bd
       -0.037044857 -0.016249318 0.0019733193 -0.038247142
0000f0 5c 88 60 bc 52 89 35 bb 06 d0 d2 ba 51 00 d0 3c
       -0.013704386 -0.0027700257 -0.0016083724 0.025390776
000100 27 e9 c7 bc 7d 95 11 3a e3 b2 98 ba 6d 5b e6 bc
       -0.024403168 0.00055535865 -0.0011649992 -0.028119767
000110 6f 64 8a bd 47 49 4c 3a 82 8d ae bc 15 8f 29 bd
       -0.067574374 0.00077929016 -0.02130771 -0.04139622
000120 31 69 cf bb 11 14 4c bd db 0a 00 bb e0 66 23 bb
       -0.0063296785 -0.049823824 -0.001953772 -0.0024933144
000130 c0 68 1a bd e3 68 0c bc fb e4 b3 3a 1d 17 87 bb
       -0.037697554 -0.008569929 0.0013724858 -0.0041226284
000140 34 31 76 bc 7e 60 95 ba c6 cb c8 3c 5c fd 03 3d
       -0.015026379 -0.0011396555 0.02451123 0.032224044
000150 38 ad 34 3c a9 5c 92 bd b1 66 3a bd 7d a3 25 bc
       0.011027627 -0.0714658 -0.04550809 -0.010109779
000160 37 e7 cd bc 9d 35 63 bd 22 cf 12 bd d0 1c 44 bc
       -0.025134666 -0.05547105 -0.03584207 -0.01196976
000170 04 a5 d8 bb 8d a9 c0 3b f3 49 4c bd 5a df f8 3c
       -0.0066114683 0.005879587 -0.04987521 0.03037994
000180 25 f5 13 3c 72 f3 55 bc 32 7b 0b bd 23 bc f2 bc
       0.009030615 -0.01305853 -0.034053035 -0.029630726
000190 6e dd 8c bd fc 40 a8 3c 3c 54 89 bc b7 c2 4c bc
       -0.06878172 0.0205388 -0.016763799 -0.0124975955
0001a0 14 e9 e5 bc ca f6 4e 3c 3f 59 79 bc cd 92 cd bc
       -0.028065242 0.012632081 -0.015219032 -0.025094414
0001b0 bf f1 8a 3a 47 ad fd bc 02 75 26 bc 4b 80 3c bd
       0.001060061 -0.030966414 -0.010159733 -0.046020787
0001c0 1d 40 66 ba 28 96 2e bd 3e 9e 1e bd 24 bd de 3b
       -0.00087833573 -0.04262367 -0.03872513 0.0067974497
0001d0 fa 9e 7c 3a 33 da 72 bc ac c6 29 bd 65 b9 a8 ba
       0.00096367265 -0.014822531 -0.041449234 -0.0012872635
0001e0 e5 3b e9 3c 0d 44 16 bd a7 da 97 bb b2 9f 28 bb
       0.028470943 -0.036685992 -0.0046342197 -0.0025729951
0001f0 08 c6 e7 bc 56 c9 6a 3c a7 bd fc 39 e1 28 db bb
       -0.02829267 0.014330229 0.00048206488 -0.0066882228

action_model._continuous_distribution.log_sigma f4 [1, 2]
000000 93 53 0a bf 6e b1 11 bf
       -0.54033774 -0.5691136

action_model._continuous_distribution.mu.weight f4 [2, 128]
000000 42 6e 83 bd b1 cc f4 3b ac d2 12 bc 90 af 9c bb
       -0.064175144 0.00747069 -0.008961361 -0.004781671
000010 b2 80 2e bd a6 43 0e bc 6e 97 98 3c f1 3d 19 bd
       -0.042603202 -0.008683121 0.018626895 -0.037412588
000020 5e 00 be bb 42 1e 21 bc be b9 99 3b 72 2c 28 bd
       -0.0057983836 -0.009833874 0.0046913316 -0.04105801
000030 32 4a 0d 3c 7e fa a5 3a dd 01 af b9 33 02 fe 3b
       0.008623647 0.0012663153 -0.0003337999 0.007751727
000040 16 c6 a7 3c 8b d0 25 ba 6e 6e 2b 3c 21 a1 a5 bc
       0.020480197 -0.0006325326 0.01046334 -0.020218434
000050 cc 87 8f bc a3 e8 c0 bc a1 6b 11 bb a6 be 3f bc
       -0.017520808 -0.02354843 -0.0022189396 -0.011703169
000060 00 f2 29 bc 9f a3 40 3d e9 3f 2a bd 54 4a 75 bd
       -0.010372639 0.04703104 -0.041564856 -0.059885338
000070 7b 74 7d 3d 28 d6 65 3c 05 2f 2b 3d f2 68 d2 bc
       0.061878663 0.01402811 0.04179289 -0.025684807
000080 75 29 a6 3a 26 7f 3d 3c 4c 57 44 3c 4d 9b 2d 3d
       0.001267715 0.011565959 0.011983704 0.042384434
000090 f7 c4 c9 3b 90 eb d1 3a 3f 25 9a 3c 9a 1d 86 bc
       0.0061575132 0.0016015638 0.018816588 -0.016371537
0000a0 9d 5b 0f 3d 66 9b 33 3c b7 3c d8 bc db 18 e8 3c
       0.03499948 0.010962343 -0.026396139 0.028332165
0000b0 a0 dc b2 3b bd 6f e7 3c 24 54 06 3c 0d 37 50 bd
       0.0054584295 0.028251523 0.008198772 -0.05083375
0000c0 ca 5b d8 bb 29 dd 22 bc d3 e7 24 bc 93 c3 e6 ba
       -0.006602739 -0.009940424 -0.010065037 -0.0017605893
0000d0 5d c2 a9 bc d9 83 03 3d aa ed ad 3b 7c 8f 75 bc
       -0.020722562 0.03210816 0.005307873 -0.014987823
0000e0 13 ea 35 3c b5 29 21 3c 6c 47 62 3c a2 08 2c bc
       0.011103171 0.009836604 0.013810974 -0.010500105
0000f0 9d fe d8 bb 85 d8 2d 3d 46 fa 5d bc c9 8b d2 3c
       -0.006622149 0.042442817 -0.013548439 0.02570142
000100 e3 60 95 3c 96 62 e0 bc d1 0a 46 bc d7 84 ed bc
       0.018234676 -0.02739076 -0.01208754 -0.028994007
000110 97 01 9a 3b 82 d7 6d 3c cb 92 30 bb 5d bf 44 3b
       0.0046998966 0.014516713 -0.0026942964 0.0030021288
000120 70 e4 9d 3c 41 99 7c ba 07 4d 01 bb ce 40 10 bc
       0.019273967 -0.0009635874 -0.001972975 -0.008804513
000130 de 32 97 3b 1f 92 57 3b f4 ef 19 bd 1c f2 36 bd
       0.004614218 0.0032893491 -0.037582353 -0.044664487
000140 5d d0 d1 bb 5f 37 2b bd eb 33 cd 3c 5c 80 6e 3b
       -0.0064030127 -0.041800853 0.02504917 0.0036392426
000150 17 f3 a3 3d 30 7d 48 3a a6 07 5e bc ff f7 6f 3d
       0.0800535 0.0007648049 -0.013551628 0.058586117
000160 1a 78 db bc b4 6a d6 bb 81 51 89 3b 35 78 9d 3d
       -0.026790667 -0.0065434817 0.004190624 0.07688943
000170 c1 99 06 3d 21 37 ce bc 2a 36 d6 ba 5b ab 1b bc
       0.032861475 -0.025172772 -0.0016343046 -0.009501304
000180 56 4a b9 bc 1a 51 b4 bb ed 95 a4 3b 5e c9 4d bb
       -0.022618454 -0.005502832 0.0050227554 -0.0031400542
000190 78 ef a1 3b 56 6c ba bb da 22 16 bd 0a 88 0c 3c
       0.004941877 -0.005689184 -0.03665433 0.008577356
0001a0 a2 52 9b 3c 2d 7f 68 3d 41 54 0d bd 83 4f 03 bd
       0.0189603 0.05676191 -0.03450418 -0.03205825
0001b0 d0 eb 16 3c 6d c7 e0 bb e1 0c 0b bd 0c 77 97 3c
       0.0092114955 -0.006859711 -0.03394783 0.018489383
0001c0 03 50 dc ba 9c 4c 56 bc c1 ac 2f bb 62 76 91 bc
       -0.0016808513 -0.013079789 -0.002680585 -0.017756645
0001d0 88 89 82 bc 1f ba 92 bc ab 07 93 3b 7a 7b be bc
       -0.01593472 -0.017911015 0.004486998 -0.023252238
0001e0 18 2a ad ba 9a 8b 8d bc 7c 84 33 bd 52 88 93 3c
       -0.0013211397 -0.017278481 -0.04382752 0.018009339
0001f0 90 74 48 bc 04 4c 0e 3d ef 2c 24 bd a8 a2 85 bc
       -0.012234822 0.034740463 -0.040081915 -0.016312912
000200 5b 4b c2 bd 66 46 d0 3c 0e 6a 0e bd 4a 6c af bc
       -0.09487029 0.025424194 -0.03476911 -0.021413941
000210 1d 51 ce ba 9e fc 53 bc e9 d4 8e bb db 74 53 3b
       -0.0015740726 -0.012938647 -0.004358877 0.0032265696
000220 21 ab 0d bb 84 1f 8a bb c9 fb d5 bc 5f 50 7d 3c
       -0.0021616893 -0.0042151827 -0.026121037 0.0154610565
000230 40 fb db 38 6d cf f2 bb 6d 9f 05 bd 44 d7 1e 3b
       0.00010489533 -0.007409981 -0.032622743 0.0024237195
000240 83 1e a6 ba 42 81 dc bb fb 84 5a bc f0 49 a6 bb
       -0.0012673888 -0.006729276 -0.013337369 -0.005074732
000250 9d 99 e1 3c e7 c5 24 bb d0 c2 de bb 0f bb d2 bc
       0.027539069 -0.0025142373 -0.006798126 -0.025723962
000260 60 40 11 bb 15 d3 b1 3a b9 89 5c 3b 77 ba ff bc
       -0.0022163615 0.0013566936 0.0033651425 -0.031216843
000270 1f fd f0 3c 23 cf e8 3c d0 a2 1a 3c c2 1d 27 bc
       0.029417573 0.028419083 0.009438232 -0.010199966
000280 11 58 55 bc b6 07 c6 bc 88 1a 90 bc 15 47 d2 3b
       -0.013021485 -0.024173599 -0.017590776 0.006417165
000290 ec 1d ca bc fa 46 37 bd c3 ed 43 bb 3c 4f 43 bb
       -0.024672471 -0.044745423 -0.0029896356 -0.0029801866
0002a0 0e 39 65 3c bc 22 f4 3b 97 90 9c bc f2 a4 cd bc
       0.013990654 0.0074504297 -0.019111915 -0.025103066
0002b0 6b 80 9e bd 86 9d 40 bd 99 0b 17 bc aa 2c a3 3c
       -0.077393375 -0.047025226 -0.009219074 0.019918758
0002c0 03 91 d3 bc ec 05 cb 38 8b 1b 6d 3c c0 17 f0 39
       -0.025825983 9.680897e-05 0.014471899 0.00045794062
0002d0 c8 14 f0 b8 68 b7 25 3c 98 f5 0e bd 0f 6f a6 bc
       -0.000114479626 0.010114528 -0.034902185 -0.020316629
0002e0 a9 f9 e9 3c 21 84 3b bd 55 df b9 bd 4e 82 4e 3c
       0.02856143 -0.045780305 -0.090758 0.012604309
0002f0 5a f8 40 bc 12 0c 8a bc 73 c2 34 3c 6d 12 15 3d
       -0.011777962 -0.016851459 0.011032688 0.036394525
000300 56 65 48 3c d3 85 9f bd c1 b3 23 bd cf 19 87 bc
       0.012231192 -0.07789197 -0.03996635 -0.016491799
000310 2d d8 d6 ba 24 aa b8 bc c0 ad df b9 b4 74 02 bc
       -0.001639133 -0.022542067 -0.00042663328 -0.0079623945
000320 ed a5 32 bd b4 d7 0c bc 3d 1e 79 bd 31 15 00 bd
       -0.04361527 -0.0085963495 -0.060819853 -0.03127021
000330 56 fc 09 bc 44 27 19 3d 82 ca 0b 3d e8 93 d7 bc
       -0.008421978 0.037390962 0.034128673 -0.026315644
000340 c7 98 5b bd b4 a8 8b bc 6c 49 d3 3c 0e 4e df 3c
       -0.053612497 -0.017048217 0.025791846 0.027258899
000350 b5 9c 37 3c 94 6e be 3a 67 eb 14 3b f9 17 fc bc
       0.011206795 0.0014528804 0.0022723319 -0.03077315
000360 ac 44 a1 ba 05 92 9f bc dc 62 23 bb 23 4b 5a bd
       -0.0012303791 -0.019478807 -0.002493075 -0.053294312
000370 28 e8 2a bd e9 49 38 bd 6f a8 2e 3c c1 7d ac 3c
       -0.041725308 -0.04499236 0.010660275 0.021056058
000380 e2 3b 22 3d e9 ca 19 bd 6a 8d 44 3c 88 8c f6 bc
       0.03960789 -0.037547026 0.011996606 -0.030096307
000390 e7 1c 9d 3b fd 78 5a bd 53 ce 0c 3d 93 54 e5 bb
       0.004794705 -0.05333804 0.034376454 -0.0069986074
0003a0 35 14 39 bd 43 2a 79 bd c6 92 b0 bb c0 8b be 3b
       -0.045185287 -0.06083132 -0.0053885905 0.0058149993
0003b0 a0 4b e9 bc 71 e7 90 bc 87 bc cb bc c3 dd e2 3a
       -0.028478444 -0.017688485 -0.02487017 0.0017308522
0003c0 d0 b4 83 bc 2f 73 75 bc 81 62 c0 bb 82 b2 0a bd
       -0.016077429 -0.014981075 -0.0058711176 -0.033861645
0003d0 ff 8f 33 bc b0 f5 75 bc f0 1e bf bb cc 98 c8 bc
       -0.010959624 -0.01501219 -0.0058325455 -0.024486922
0003e0 60 94 16 3d 7d 5e 71 ba c6 2e 48 3c 97 a2 04 3d
       0.036762595 -0.00092075 0.012218183 0.03238162
0003f0 3e 0e 9f bc 7e 45 9d 3c 32 79 b6 bd ed 97 77 bc
       -0.01941597 0.019198176 -0.08909835 -0.0151119055

action_model._continuous_distribution.mu.bias f4 [2]
000000 db 29 05 3c 6e fe 82 3d
       0.008127655 0.06396185
