2118121030/2118121030_FinalRaporu_Huseyin_Bugra_Tastan/MyBehavior.onnx (onnx, 115158 bytes, 8 tensors)

network_body._body_endoder.seq_layers.0.weight f4 [128, 78]
00000000: 6032 6fbe 03a6 d83e fca9 3ebd ddeb a73d
00000010: ffb4 23bf 6b49 4abe c58d 12bd 5a05 863e
00000020: 6426 95bc 03e5 023e bf35 80bc 8284 f2be
00000030: 8422 9e3d 6e1b 803e 29e1 b0bd 26bb 60be
00000040: 6f8a 5fbe 4a68 35be ee2e da3d d40f 193e
00000050: eb81 9e3e 90a8 203e a0c0 2abe db0a f3bd
00000060: b34c 53be ccd4 4f3e 4628 34bd a5d0 85be
00000070: 6f17 013f f777 e83d 4a30 1abe dfa8 9abd
00000080: dcd6 dfbc 59bc 493e 5f11 64bf 98cf 89be
00000090: 4467 8ebd 6fc0 fdbc 2496 9ebe 47a0 ebbd
000000a0: 0fff 0a3e 4bdc 9a3d 1e50 f43c 29fb 03bf
000000b0: 47f6 84bd 7d3d 983e 145d 1bbe 6d22 b1be
000000c0: 2516 91bb cf6b 243e c9c6 4cbe 37a8 53bd
000000d0: a3de 6e3d 4502 923e f78f 3cbe b25e bebe
000000e0: b144 84bd 63f5 a53b 7050 5a3e 5c6a 08bf
000000f0: 531a e4bb bfde 9f3d 493e 043e 3870 523e
00000100: b8be 0c3f d198 013f e783 9ebd 769a 55be
00000110: 0599 1dbc cdf3 9f3d 5aff 85be 3c61 35bc
00000120: f313 e83d 0c69 02be 2835 eebc bd94 2b3e
00000130: 13e2 c83c a072 83bc 2570 4d3e 1ff2 61bd
00000140: f126 13bd 5181 09be adcc 0fbe 8eee 3c3e
00000150: 9991 f6bd 0e9b 2b3c c40b 13be 7ee4 24be
00000160: bfb8 6a3e b666 8c3c 5f05 49be 20a0 663e
00000170: 01fa 633e 3152 33bd a829 ff3c 8a2c 59bd
00000180: 0663 1abc bc5c fd3b f0e3 843c a4c0 ec3c
00000190: a88b 04bd 49cf 04bc 921a 553d f48c 38be
000001a0: 1a64 753d d1c6 863e 95ac fcbc 48f6 51be
000001b0: 7507 4f3e d553 cbbc 0ee3 a93d 0a0a e3bd
000001c0: 25fc 0c3e f271 b9bd 00f4 8cbd fe0e f03c
000001d0: 2331 023e 848e 5cbd 4cbc 103e f475 cf3d
000001e0: 96f1 af3d 26fc 9cbd a3f9 9f3c 0b9e 62be
000001f0: 6ba5 b8bc 7038 02be 5ac7 5e3e e686 e0bd
00000200: fac4 dfbd e6f3 083c 55af 5c3e f4aa be3d
00000210: 08b5 3e3e 442a 183d c80c 023d c9e8 89bd
00000220: 59b2 b1bd bca8 1d3d cd88 4cbe 9116 4bbd
00000230: bae3 603c 48fe 8ebd 3269 af3d 8f7f 1fbd
00000240: 6389 a8bd 8f90 87bd 50e3 da3d a403 e6bc
00000250: 65f7 8d3d 1abe f8bc d4fd 93be 80d0 d8bd
00000260: 608a 78bd 00cc 653c bf6d 7bbd 66f5 0c3c
00000270: 0348 713d f4ee dabd 208b 55be 9149 a83d
00000280: 9583 6dbd 1cc4 30be 50e0 d33d dbf3 32bd
00000290: af38 15be bb6b 023e 169d 36ba 2362 233d
000002a0: 9a5b da3d 9905 f2bc 4886 4c3e cd92 7c3d
000002b0: a567 f1bb 43de 413c a069 773c 0d59 db3c
000002c0: e393 70be 15ab d73a 036c e93d 77a2 06bd
000002d0: a4f9 473d 5874 73bc d486 3fbd 72f4 633d
000002e0: dae7 4d3c 2ba5 32bd 977d 503e 60d0 c0bd
000002f0: 18c0 21bc 6f90 13bd 3c4e 7fbc 76b4 5a3c
00000300: 2e38 db3c 266c 093d 291c 8abd 2115 34be
00000310: 96ae 00be 49a7 ccbd 1307 823e be93 643d
00000320: 5501 fd3d 1f04 8ebd 09ce 6c3e d004 7b3d
00000330: 509d 29bd a631 833e 7842 123e db6d 6d3d
00000340: 081a e3bb 6383 4d3e 14b6 893d 389a 86be
00000350: 7d3b 433d 2d84 b2bd 1fbb 9abd 7893 2f3d
00000360: 6df5 143e 54fd 0a3d 7fb7 503d 64cd 2a3e
00000370: d502 0e39 a41e 31be b5c6 173e 60c6 533c
00000380: 3371 64bd e310 4fbd 5b19 14be f60c 0ebe
00000390: 2810 aa3c f678 19be 3737 083e 6498 2e3d
000003a0: 81c7 36bc 3692 1e3e b181 433c 1e69 8c3e
000003b0: f02c d73e 4300 583d b353 0fbf 9d1a 86bd
000003c0: ee19 363e 5a0c 0dbd 7d74 a83e 9e7e 463e
000003d0: 38f8 38be 8cdd 3bbe 6ccc 483d 5890 ef3e
000003e0: e88f f3bc 8dea 2abe f9f7 dcbd e7ed d93d
000003f0: 5afd 163e 3fb9 ef3e 5b13 84bd 551d 7c3d
-0.2335906 0.42314157 -0.04654883 0.08199284 -0.63948053 -0.19754569 -0.035779733 0.26175958
-0.018206783 0.12782674 -0.015650628 -0.4736672 0.07721427 0.25020927 -0.08636696 -0.21946391
-0.21830152 -0.17715564 0.106534824 0.14947444 0.30958495 0.15689301 -0.16675043 -0.11867305
-0.20634727 0.2029602 -0.04398372 -0.26135746 0.5042638 0.113510065 -0.15057483 -0.07551741
-0.027324133 0.19700755 -0.89089006 -0.26916194 -0.0695329 -0.030975549 -0.30973923 -0.1150518
0.1357386 0.07561549 0.02982336 -0.51555115 -0.06492286 0.29734412 -0.15172225 -0.34596577
-0.0044276887 0.1605675 -0.19997706 -0.051674094 0.05831779 0.28517357 -0.18414293 -0.37181622
-0.06458414 0.0050646528 0.21319747 -0.5328729 -0.006961146 0.07806157 0.12914385 0.2055062
0.54978514 0.50623804 -0.07740002 -0.20859703 -0.009619002 0.07810173 -0.2617138 -0.011070546
0.1133193 -0.12735385 -0.029078081 0.16755958 0.024521863 -0.016045868 0.20062311 -0.055162545
-0.03592581 -0.13428237 -0.14042921 0.18450376 -0.12039489 0.01047398 -0.14359957 -0.16102788
0.22922038 0.01713882 -0.19630955 0.2252202 0.22263338 -0.043779556 0.031147793 -0.05302099
-0.009423023 0.007732002 0.01622197 0.028900452 -0.03235975 -0.008106061 0.052027293 -0.1802252
0.059909917 0.2632356 -0.030844012 -0.20504105 0.20217688 -0.024820248 0.0829526 -0.11085899
0.1376806 -0.090549365 -0.06882477 0.029304024 0.12714057 -0.05384685 0.1413433 0.1012992
0.08591001 -0.07665281 0.019528216 -0.22130601 -0.022539815 -0.12716842 0.21755734 -0.1096323
-0.10926242 0.008358931 0.21551259 0.093099505 0.18623745 0.037149683 0.03175047 -0.06733853
-0.08676595 0.038490996 -0.1997406 -0.049582068 0.013726169 -0.06982094 0.08564986 -0.03894001
-0.082293294 -0.06619369 0.10687888 -0.028077908 0.069319524 -0.030364085 -0.28904593 -0.10586643
-0.06067884 0.014025688 -0.06138396 0.008603429 0.058906566 -0.10690108 -0.20853853 0.08217157
-0.057986815 -0.1726231 0.103455186 -0.04368959 -0.14572404 0.12736408 -0.00069661567 0.039888512
0.10662003 -0.029543685 0.19973099 0.061663438 -0.0073670917 0.0118327765 0.015100867 0.026775861
-0.23493914 0.0016454185 0.11397555 -0.032869782 0.04882206 -0.0148592815 -0.04675944 0.055653043
0.012567485 -0.043614548 0.20360409 -0.094147444 -0.009872459 -0.036026414 -0.015582617 0.013348689
0.026760187 0.033550404 -0.067436524 -0.17586185 -0.12566599 -0.099928446 0.25396022 0.05580496
0.1235377 -0.0693438 0.23125471 0.061283886 -0.04140979 0.25623816 0.14283168 0.057966094
-0.0069305934 0.20069651 0.06724182 -0.26289535 0.047664154 -0.08716617 -0.07555222 0.042865247
0.14546748 0.033933 0.050956246 0.16679913 0.0001354323 -0.17296845 0.14821894 0.012925714
-0.055772018 -0.050553214 -0.14462797 -0.13872132 0.020759657 -0.14987549 0.13302313 0.0426258
-0.011155964 0.15485463 0.011932776 0.27423948 0.42026472 0.052734625 -0.5598709 -0.06548045
0.17783329 -0.034435607 0.32901374 0.19384238 -0.18063438 -0.18346232 0.049023077 0.46789813
-0.029731706 -0.16691037 -0.107894845 0.106410794 0.14745083 0.4682102 -0.06449004 0.06155141

network_body._body_endoder.seq_layers.0.bias f4 [128]
00000000: c2a4 d2bd a6ed 64b3 917d 628a 7214 d5bc
00000010: 16db 8315 74dd 76bd 4e0f 8bbd c50d d1a9
00000020: d107 3dbc b3fa 2ebc ab55 9ebd f73e 753b
00000030: 0000 0000 0b6d 71bc 104e 9dbc 0000 0000
00000040: 699a 47bd 5821 9bbd 4d14 d5b7 4a24 d79d
00000050: 6e91 0cbd 288c c0bb e581 2cbb e003 cebb
00000060: 0000 0000 69aa 2fbc b67b 32bb e9d0 a1bc
00000070: a441 c5bb f3f7 1aa3 328a 7bbc 8a89 28ac
00000080: cfe9 aabc f413 b3bb 08ef 3bad 0370 223c
00000090: e292 09bd 19fc 2cbd 8443 17bc f323 23a6
000000a0: 0000 0000 2de1 89bb e0d9 ae3a 0000 0000
000000b0: abb6 70bd b0d6 f639 99e6 18ae 6b8c 29bd
000000c0: 3b99 f5bc 8f79 661a cd88 82bc 7855 0ba7
000000d0: d7d9 e8bc 4887 bdbc 4e01 aebc 5b5d dbba
000000e0: d59f 48bb 0000 0000 edfe c59b e59a 0fbb
000000f0: 66d6 feba c467 0fbd 096b acba 7501 28bb
00000100: d7a6 b9bc 2041 1a91 12f5 b93b d8b8 99bd
00000110: 0000 0000 0906 301f 7e6b 4f3b 43cb 813b
00000120: 9a1c 32b9 b8e6 66bc 9c27 711d be05 ffbb
00000130: bf23 bebc 047e ceb8 f921 8dbd a268 a8bd
00000140: 35d1 2cbd 325c 77bc 0000 0000 4fc5 f80e
00000150: 0390 39bc 24eb 3f9c dbfc 21bd bdf3 1dbd
00000160: 0000 0000 d62a 02bb 0000 0000 083f 9bbc
00000170: 4c1b 0435 4672 9cbb c823 d2bb cc11 40b0
00000180: 5f5f 7b3b 7194 501e 31b2 51bb 5fbd 1dac
00000190: ec43 b1bb 19e1 a42e 6ba5 f8b6 f98d baa6
000001a0: 9804 7cbd a854 5824 fdf4 29bc 6a11 48bc
000001b0: 670e b2bc 833d 86bc da17 14bd 6a98 7f38
000001c0: 1597 f2ba 634b 0e2a a826 3e11 4f62 28b0
000001d0: 0000 0000 eb6b 9abb d2f3 a43a 1936 83bb
000001e0: 4cfe f81f bcc9 68bd c937 b0bc fac6 8dbc
000001f0: e2f5 12bd 8e9e 9033 96de 92bb 4f83 172f
-0.10285331 -5.3301527e-08 -1.09051206e-32 -0.026010726 5.3256135e-26 -0.060269788 -0.067900285 -9.283853e-14
-0.011537508 -0.010679889 -0.077311836 0.0037421563 0.0 -0.0147354705 -0.019202262 0.0
-0.04873124 -0.07574719 -2.5401032e-05 -5.694755e-21 -0.03431838 -0.005876083 -0.002632254 -0.006287083
0.0 -0.010721781 -0.0027234382 -0.019752936 -0.006019788 -8.400862e-18 -0.015352773 -2.3950585e-12
-0.020863442 -0.005465025 -1.0682795e-11 0.009914401 -0.033587344 -0.042232607 -0.009232406 -5.6600706e-16
0.0 -0.0042077512 0.0013340078 0.0 -0.058767956 0.0004708073 -3.476561e-11 -0.04139368
-0.029980293 4.766108e-23 -0.015934372 -1.9336458e-15 -0.028424187 -0.023135796 -0.021240856 -0.0016736196
-0.0030612845 0.0 -3.2755658e-22 -0.0021912393 -0.0019442558 -0.035011068 -0.0013154458 -0.0025635634
-0.022662563 -1.2168526e-28 0.0056749666 -0.07505959 0.0 3.7274442e-20 0.0031649764 0.0039609983
-0.00016986058 -0.014093094 3.1916562e-21 -0.007782667 -0.023210404 -9.846318e-05 -0.068912454 -0.08223082
-0.042191703 -0.015097665 0.0 6.132672e-30 -0.011325839 -6.350051e-22 -0.039547782 -0.038562525
0.0 -0.0019861958 0.0 -0.018950954 4.9213554e-07 -0.0047743646 -0.006412957 -6.9874484e-10
0.0038356406 1.1042125e-20 -0.003199708 -2.2416164e-12 -0.0054097082 7.497842e-11 -7.410233e-06 -1.2944824e-15
-0.06152782 4.690924e-17 -0.010373351 -0.012211183 -0.021735383 -0.016386753 -0.03615556 6.0938684e-05
-0.0018508161 1.2638289e-13 1.5000269e-28 -6.125775e-10 0.0 -0.004712572 0.0012584871 -0.0040042517
1.05452784e-19 -0.056833014 -0.021510975 -0.017306793 -0.035879023 6.7343635e-08 -0.0044821007 1.378002e-10

network_body._body_endoder.seq_layers.2.weight f4 [128, 128]
00000000: 9160 973c 6293 00bc 37c1 02be 4c83 06bb
00000010: b31f c13d add6 65be b05e f63d fbae 0ebd
00000020: 06ec 5cbc 4f05 88bd 7a60 2dbc 1a6f 143d
00000030: d3a3 fcbd d5b6 e8bd 064f afbd 5ac9 713d
00000040: 53de c63d ef11 793d 1014 05bc 09cd 073e
00000050: 6617 c2bd 4a7c 833d 65a9 973d e059 03bd
00000060: a1c1 d83b 9d0e a4bd bba6 933d f7c3 513d
00000070: 4b25 873c 03e6 0a3e df4e 243d dd79 453c
00000080: 3342 0f3e fdc2 663b 92b9 df3c 74eb 023e
00000090: cc3f abbd 1617 8bbd ae55 54be 6759 c6bd
000000a0: 8728 413b 1714 b43d aeea a63c 33ea 51bd
000000b0: 5f5e 473d 5ffd e73d c477 043e 2a15 c73d
000000c0: 7deb 5bbd f91f 00be 18e7 463e 3a9a 873d
000000d0: e110 06be e3be 04bd c45d 873c 4328 0d3d
000000e0: 96d3 403c 9957 d6bb 9bdb 473d 7b80 2c3d
000000f0: 1f27 563d 774c aebd b536 b7bd 9db2 acbc
00000100: 60ab bbbb c5e9 30be bd1f 2d3d b1ee f4bc
00000110: c14e b1bc a9d2 2abd d391 7abd d56d 13bc
00000120: d85a d03d 9947 fd3d 5852 a23d c8ff 53bb
00000130: 4396 86bd 353c 8cbc 9db8 3ebd ce3c 0abe
00000140: 5fff 98bd 2c26 85bb 179f 06bd 9bc4 58bd
00000150: 8ea1 483c dc64 edbd 82a0 81bd 1083 913d
00000160: e9cf b7bd 66bd 48bd a615 753c 88c4 c7bc
00000170: 7252 f3bd 0fa9 30bd 2231 b83c 483d 23bc
00000180: af89 b23d 3077 113e 6aea 1c3e 0535 14be
00000190: 707f 083e 4f5f 233e e0f7 40bd f834 1dbd
000001a0: 2ca4 9cbc 9ae8 66bd f0bd 063e b50e 8dbd
000001b0: 9b61 2bbe 5859 cbbd d518 363d 0cd0 d1bd
000001c0: 39ca 2e3d 2f4e 943c 231b 7c3d 0d41 a8bd
000001d0: 36f2 4a3e a24b b4bd 22d7 173d d882 fabd
000001e0: 80c4 863d c92f c63d 9eb1 903b c573 13be
000001f0: d2b1 1ebd 22ca de3d 4b83 93bd 8447 a3bd
00000200: c68c 933b 60d9 cb3c 286a 12bc 9303 1d3e
00000210: b553 55bd cc22 24bc a86b 433d 226f 5d3d
00000220: c9fa f5bc f221 36bd 6903 683d 849c 7c3d
00000230: ebe4 d63c e641 cebd 383d 083e 9af2 c23d
00000240: 4495 083d 603b 93bc 636a 12bd c4a9 353e
00000250: 3794 293b 1474 2ebe 3eb5 05be 23a6 c9bd
00000260: 1593 83bd 0374 51bd 6e0f a0bd d5b4 87bc
00000270: ca67 37bd 943b f13c dabe 43be 470d d23d
00000280: e1bd 053e 4a90 32bd 7a9b 7e3b df28 9abd
00000290: 1517 03be 0077 373d 99cd 21bd 10d5 41bc
000002a0: 774f 993d 9bf9 f73d 3b65 0c3d f9cb 3cbc
000002b0: f3ba 6dbc dbc7 e93d 0f01 02be bc83 89bd
000002c0: 8827 b03d 1f42 603d db3f aabc 31e7 b8bb
000002d0: 1bb8 4bbd c7e9 823d 09bb ae3d 4283 cf3d
000002e0: 6043 713d 3457 8d3c c232 de3d bd83 cd3b
000002f0: dbb8 533d 6015 0dbe 5e01 0ebd 1923 63bc
00000300: b316 823d 2d20 0bbc b27a 4f3d 1c71 99bd
00000310: 4988 fdbd 4f5f 4a3c c971 3a3c d8a3 423e
00000320: 6e86 903d 5add 83bd d6fa 00bc 5279 e43d
00000330: 7102 c53c 2b8d 493d e8d2 683c 723e 88bd
00000340: 6c01 c039 f9ff 153d d584 b73d 66f1 1abe
00000350: a33d 9b3d 7902 ee3d 6451 febd e330 44be
00000360: fcf8 dabc 32de e9bd 6a2e 8a3d 1d62 8bbe
00000370: 51d7 6c3d 004f 88bd b798 24bd b806 38be
00000380: c9f3 eb3d 7597 0fbe 6401 213c 87d9 b73c
00000390: 28e1 41bd 3666 353d 1cb5 223e abb9 bf3c
000003a0: 3dac a5bc 8972 0a3d f62d dbbc 8cb2 7cbd
000003b0: c04c 163d aab2 52ba 54a6 15bb 55ca 3b3c
000003c0: 7280 943d 6d74 2e3d d788 d73d 3609 b33d
000003d0: dc8e 883d f4eb 973d c59c 07be 54a8 36bd
000003e0: fa5a 713d 7291 ecbc c360 aabc ed6e acbc
000003f0: 78fb af3d 2c09 67bd dd99 493e d890 023c
0.018478664 -0.007847639 -0.12769018 -0.0020525036 0.09429874 -0.22445174 0.12029779 -0.034834843
-0.013484007 -0.066416375 -0.010582084 0.036238767 -0.123359345 -0.113629974 -0.085599944 0.059029914
0.09710374 0.06080812 -0.008122459 0.13261808 -0.09477119 0.06420191 0.07405356 -0.032068133
0.0066148792 -0.080106 0.07209536 0.051212277 0.016497275 0.13564305 0.04011428 0.01205298
0.13990097 0.0035211437 0.027310167 0.1278513 -0.08361778 -0.06791513 -0.20735809 -0.09685021
0.002947362 0.08792894 0.020375576 -0.05124874 0.048673984 0.113276236 0.12936312 0.097208336
-0.053691376 -0.12512197 0.19424093 0.06621213 -0.13092376 -0.032408606 0.016524203 0.034462225
0.011769196 -0.006541204 0.048793416 0.042114716 0.052283403 -0.08510678 -0.089459814 -0.021081263
-0.0057272166 -0.17276676 0.042266596 -0.029898973 -0.021643998 -0.041704807 -0.061174225 -0.008998354
0.10173577 0.12367172 0.07925862 -0.0032348502 -0.06571629 -0.017118553 -0.04656278 -0.13499758
-0.07470583 -0.0040633883 -0.032866564 -0.052921873 0.012245549 -0.11591503 -0.063294426 0.07105076
-0.089752026 -0.04900875 0.014958775 -0.024385706 -0.118809596 -0.043129977 0.022484366 -0.009963341
0.08717667 0.14205623 0.15323797 -0.1447335 0.13329864 0.15954326 -0.047111392 -0.038380593
-0.019121252 -0.05637417 0.13158393 -0.06887571 -0.16736452 -0.0992915 0.044457275 -0.1024476
0.042673323 0.018103687 0.061549317 -0.082155325 0.19818959 -0.08803488 0.0370704 -0.12231988
0.06580448 0.09677083 0.004415705 -0.14399631 -0.0387438 0.108783975 -0.072027765 -0.07972625
0.0045028655 0.024883926 -0.008936442 0.15333395 -0.052081782 -0.010018062 0.04771009 0.054061063
-0.03002681 -0.044465967 0.056643877 0.061672702 0.026232203 -0.10071163 0.13304603 0.09518929
0.033345476 -0.017972648 -0.03574599 0.17740542 0.0025875696 -0.17036468 -0.1305742 -0.09846141
-0.06424538 -0.051136028 -0.07815443 -0.01656572 -0.044776715 0.029447354 -0.19115773 0.10256439
0.13060714 -0.043594636 0.0038849995 -0.07527327 -0.12801774 0.04479122 -0.039502714 -0.011830583
0.0748586 0.12108155 0.03427623 -0.01152324 -0.014509904 0.114150725 -0.12695716 -0.067145795
0.0860129 0.054750558 -0.020782402 -0.0056427945 -0.049736124 0.06392246 0.08531768 0.10132457
0.058902144 0.017253496 0.10849525 0.006271808 0.051689964 -0.13777685 -0.034669273 -0.013863348
0.06351986 -0.008491558 0.05065412 -0.07492277 -0.1237951 0.012351825 0.011379668 0.19007814
0.070568904 -0.06438704 -0.007872304 0.111559525 0.024049016 0.049206894 0.01421044 -0.066525355
0.00036622153 0.036621068 0.089608826 -0.15131149 0.07580116 0.11621565 -0.12417868 -0.19159274
-0.026730053 -0.114193335 0.06747134 -0.27223292 0.05782253 -0.06655693 -0.040184703 -0.17971313
0.11521108 -0.1402262 0.009826992 0.022442592 -0.047333866 0.04428693 0.158894 0.023403963
-0.020223731 0.033800635 -0.026755314 -0.061693713 0.03669429 -0.0008037487 -0.0022834735 0.011461814
0.072510615 0.0425915 0.10524147 0.08741991 0.06667873 0.07418051 -0.13243397 -0.044594124
0.058924653 -0.028877947 -0.020798093 -0.021048987 0.08592886 -0.05640523 0.196876 0.007969104

network_body._body_endoder.seq_layers.2.bias f4 [128]
00000000: cd3f ceac 8925 de28 35ee 81bc e507 30bc
00000010: 0e50 14b9 9883 ffba ad10 6ebc e83e 38bc
00000020: 3bc4 e8bc e097 0991 7f29 3abc 572c 60bc
00000030: 4734 46bc e126 0ab9 9bcc b5ba 3efd a7b8
00000040: 1cd2 e994 3c8e 31b8 30bf ffbc 53bd 4cbc
00000050: 6662 09bc 331c 6abc e45b 92bc e271 23ba
00000060: 4c5c aabb 2709 0dbc 1d0d 6f32 00ba 8dbb
00000070: 7d2f fcbb 79fb 16bd 5260 dfbc 232b 4dbb
00000080: e14d 57bb 3a6d afbb 6e8a 29bc ab0d 05bd
00000090: cb6a 512d 6a5d ddb9 c60c 0ebb 0254 50b3
000000a0: 6555 83b3 f175 eb23 ce2c 89bc c6c5 39b8
000000b0: 8e70 28bc ea3d 3dbc 80c9 c6bb b0ff aabc
000000c0: 77df c5bc 896c 9cbc d01d 98aa 5a8d 98bb
000000d0: 66d1 83bc cb59 0ebc 9360 77bc 3edb 412d
000000e0: d4f8 a0b8 71e1 10bb 3df6 8dbc fa03 30b4
000000f0: 55bb e4bc 1b1d 44bc 5f58 97b9 db02 140d
00000100: ceb7 9cbb a361 d7b9 8a50 7bbb ebfb 10bd
00000110: bc0a 15b9 9bb9 a7bb f05e e9bb aaa5 dbbb
00000120: 4337 9537 5173 28bc 8849 35b9 5494 bd26
00000130: 42da 3e31 dba9 4ab7 308f 24bc ee82 7abc
00000140: b478 7eb9 0000 0000 468c 55bc d78f 32bb
00000150: 4a71 daaa 175c 189e 505e 9ebc ef1b 83bc
00000160: d909 10bc 5a0c d5bb 9d39 65b8 9517 e2bc
00000170: 89ef 9fba 4458 93bb d4bf 04bc 6c9f 18bd
00000180: 26b6 a9bc 6adf 88bc b480 5521 8e00 b3bc
00000190: 2ef9 99bc e300 ccba be77 a4bc 40ce 7ebb
000001a0: c026 5d9d a176 d9bc 54bf 25bc c83e 2016
000001b0: 44cd acbc 66e9 9db8 c201 e4bc 348c 2bbc
000001c0: 26e8 19b8 8a63 87bb b055 5734 45d4 66bc
000001d0: 3d00 3abc 1946 3cbc 6d1e 34bc 0f79 b2b8
000001e0: 7b27 53b6 e833 b8bc fd78 d1bb ae54 03bd
000001f0: 6244 31bc 3165 c5bb ffab 00bb 5906 fbba
-5.8619555e-12 2.466323e-14 -0.015860656 -0.01074407 -0.00014144203 -0.0019494174 -0.014530343 -0.011245467
-0.028413882 -1.0854194e-28 -0.0113624325 -0.013682446 -0.012097425 -0.00013175189 -0.0013870181 -8.0103506e-05
-2.3609861e-26 -4.2332555e-05 -0.031219095 -0.01249631 -0.008385276 -0.01428895 -0.017866082 -0.00062349264
-0.005198991 -0.008608139 1.3914613e-08 -0.0043251514 -0.0076960907 -0.036860917 -0.027267609 -0.003130623
-0.0032852816 -0.005353597 -0.010347946 -0.032483738 1.1903987e-11 -0.00042222004 -0.0021675094 -4.850518e-08
-6.115696e-08 2.5528701e-17 -0.016744997 -4.4291628e-05 -0.010280741 -0.011550406 -0.006066501 -0.020873874
-0.024154408 -0.019094722 -2.702131e-13 -0.0046555223 -0.01609106 -0.0086884005 -0.015098709 1.1019461e-11
-7.6757424e-05 -0.002210703 -0.01732933 -1.6392724e-07 -0.027921358 -0.01196983 -0.00028866806 4.560946e-31
-0.0047826534 -0.0004108074 -0.0038347566 -0.035396498 -0.00014213746 -0.0051185614 -0.007121913 -0.0067030983
1.7787917e-05 -0.0102814 -0.00017288898 1.3154714e-15 2.7772704e-09 -1.2079686e-05 -0.010043904 -0.015290005
-0.00024268293 0.0 -0.013033932 -0.002724638 -3.880319e-13 -8.065857e-21 -0.019332081 -0.01600453
-0.00879141 -0.0065017166 -5.465151e-05 -0.027599135 -0.0012202124 -0.004496606 -0.008102376 -0.03726141
-0.020716738 -0.016708095 7.2337544e-19 -0.02185085 -0.018795576 -0.0015564229 -0.020076629 -0.0038880259
-2.926914e-21 -0.026545824 -0.010116417 1.2944507e-25 -0.021093972 -7.529817e-05 -0.02783287 -0.010470439
-3.6694248e-05 -0.004131739 2.0054608e-07 -0.014088695 -0.011352596 -0.011491322 -0.010993582 -8.51025e-05
-3.146443e-06 -0.022485688 -0.0063925968 -0.03206318 -0.010819526 -0.006024026 -0.0019633768 -0.0019151672

action_model._continuous_distribution.log_sigma f4 [1, 2]
00000000: 9d7b e6bf a696 0fc0
-1.8006474 -2.2435699

action_model._continuous_distribution.mu.weight f4 [2, 128]
00000000: 1c89 a9bb 8bbb b7bc dec8 a5bc 0354 0e3e
00000010: bef8 b4bb c99e 06bd bb5b a1bb 1cdf 3dbd
00000020: c4c8 acbb c66b 16bc 6653 38bb f1e8 64bc
00000030: ba23 e93b 5564 edbc 1b64 f8bb 228e ffbc
00000040: 8a1a 963c d4a5 233d 34d1 0d3b 5f69 6aba
00000050: d970 5ebb ed92 183a 3f98 b5b9 c732 4ebb
00000060: 60c0 d03c 6dfa 63bb 1ae9 be3a b95e f13c
00000070: eeb6 783b 59a6 86bc 5a7c 01bb 1c1b 973c
00000080: a8f8 ccbb d0a2 cdbc 333b 83bb 2571 43bb
00000090: 473f 85ba dd65 18bd 0191 8d3c e058 fbba
000000a0: aa4d c0bc ddef fa3c 26ef 6fb9 0bd0 71bb
000000b0: 67e0 d33b cf9c 193d 634d 443c e1d1 5f3b
000000c0: 30fd 63ba 5327 6439 b73c c1bb 6136 a2bb
000000d0: 8312 97bd 66ba e2ba db09 34bd fd78 a83a
000000e0: 65c2 953b ba50 8e3c 907f e6b9 4ed4 573c
000000f0: fa8a 7fb9 6d87 72ba dadf 2e3c 02f6 e43c
00000100: 1e42 5fbc 886a 053d e9f5 34bc 9eb3 02ba
00000110: 7da6 64bb f565 d2bb c227 353c 9fd8 27bc
00000120: ccf6 93bc 7460 25bc ec73 6b3c 5a15 1abc
00000130: dc3a ec3b ec32 88bc 475e 78b9 5861 293d
00000140: ec4c 343c 707a 923b c51d b6ba bde3 e73c
00000150: afff 6abc f0fc a7bc 27fe ddbc d157 72ba
00000160: e4e1 d7bb 6591 81bc 6e14 1f3c 8621 03bb
00000170: bc78 0c3d a0aa 133c 0152 b0bc ee36 c53a
00000180: 15fe 95b9 cfad dc3b 2afb 8cbc f4f2 2d3c
00000190: 67a2 27bd cfab 023c a5a3 853c b01b dd3d
000001a0: 2ad1 2ebc c05c e0bb 2924 3eba 83e1 86bc
000001b0: badf dbba 9e5a ca3b 2b02 74b9 1d73 0f3c
000001c0: d1f2 4fbc 9a26 6bba a102 43bc b509 093c
000001d0: 18cd 69ba d31d 9dbc e1f4 7bbd 658a 7fbc
000001e0: 6d6f 70bc 62cd e83b dfe5 e33b f8fb d539
000001f0: 397b 6b3c cae7 383c efda 44bc f521 07bd
00000200: 1334 403c 1385 ffbc 8b1f 35bc 2a9d 373c
00000210: 8666 fd3b 6653 50bb 4999 58ba ebc5 abbb
00000220: 7121 90ba 9fad 1d3c 3584 9bbb 7e9d 0c3c
00000230: d716 27bb d5e7 10bd 34d4 9d3b c3b9 7a3c
00000240: db18 ed3c 3857 8cbb e295 18b9 d3a4 fbba
00000250: f8a0 3dba ba25 d53c ba1b caba bebd bebb
00000260: 2ed4 9c3b 8f13 d1b9 26aa 04bd 9d22 0d3c
00000270: 9438 a8ba d6af 9c3b 6fe8 1b3a c5e6 a5bc
00000280: 45f8 37bc 3eb7 67bb 6582 8e3a dbe6 caba
00000290: 82e0 2e3b cde6 a6bc 19a4 f53b 9a85 18bc
000002a0: 17d4 09bb 58c2 11bd 9fd0 7fba ad71 363c
000002b0: 9530 cabb 7f87 803b bc28 c9ba 9705 92ba
000002c0: 6e13 103a 455f 523a a71a 903c b0a5 02bb
000002d0: ed9f 7cbc 09ac c639 e5f2 c53b 20fe 9f3b
000002e0: 8f09 8c3b d4a1 8cbc ffb5 83ba c9ff c0bb
000002f0: dd1a c5bb 7de0 bc3a 3f51 2cbc 2bd9 213a
00000300: 5efa a539 7633 8cbb eb06 0fbb e5fc 44b9
00000310: 6fd4 3a3b 100b e03c af16 05bb 0eab d03a
00000320: 44bd bfbb e6b7 21bb 9120 b03c 26f8 143d
00000330: 0820 11bc 5457 56bc bbd1 b539 748c d3bb
00000340: 7a5f fbbb 738b c63c 4028 f6ba 800f 453c
00000350: 3ddb 4dbc 2516 093c 19ef 6439 06b4 7638
00000360: 14c2 713a 3cc7 e93c 5535 04bc bb29 ceba
00000370: cc88 253c 7d70 10bb cf2f 723a 43a6 39b9
00000380: 6768 233b 5daf 8abb 3d5a 263b 098f 96ba
00000390: 398c 023a b778 4ebc 27ef 49bc dad6 043c
000003a0: 6c8d 4a3c 301b 33bb 4d27 b3b9 3e84 cb3c
000003b0: e830 353a ac7a 963b 9de5 cdb9 45e5 9f38
000003c0: d478 193c 741c 9dba 620f f5bb 2589 1e3b
000003d0: a959 893a 1ca2 a83a 54d2 f7bb 5957 4ebd
000003e0: 3aa5 88bc bd04 4d3a 175a 3abc b638 083a
000003f0: 9a7c 56bb 09aa ef3b e14a efbb a9a1 043c
-0.0051738154 -0.022428295 -0.020237383 0.13899235 -0.0055228164 -0.032866273 -0.004924265 -0.04635535
-0.0052729566 -0.009180969 -0.0028125881 -0.013971553 0.0071148546 -0.028978506 -0.007580293 -0.031195704
0.018323202 0.039953068 0.0021639587 -0.0008942093 -0.0033941774 0.00058202335 -0.00034636442 -0.003146337
0.025482357 -0.0034786717 0.0014565319 0.029464113 0.0037950831 -0.016436743 -0.0019757957 0.018445544
-0.006255228 -0.02510205 -0.00400486 -0.0029822078 -0.0010165953 -0.03720652 0.017281057 -0.0019176267
-0.023474533 0.030631954 -0.00022881906 -0.0036897685 0.00646596 0.03750306 0.011981341 0.0034152197
-0.00086970907 0.00021758424 -0.0058971304 -0.00495033 -0.07376578 -0.0017297983 -0.04395471 0.001285344
0.004570293 0.017372478 -0.0004396406 0.013173176 -0.00024370468 -0.00092517474 0.010673488 0.027949337
-0.013626603 0.0325723 -0.011044958 -0.00049858715 -0.0034889274 -0.0064208456 0.011056842 -0.010244518
-0.018062018 -0.010093797 0.0143709 -0.009404505 0.007209165 -0.016625844 -0.00023686244 0.0413526
0.011004668 0.004470162 -0.001389437 0.028306836 -0.014343186 -0.020506352 -0.027098728 -0.0009244653
-0.0065882076 -0.0158164 0.009709461 -0.0020008995 0.03429483 0.009012848 -0.021523478 0.0015046278
-0.000286088 0.006734587 -0.017209608 0.010617007 -0.040926363 0.007975533 0.016313383 0.107962966
-0.010669986 -0.006846994 -0.0007253313 -0.016464954 -0.001677505 0.006175353 -0.00023270461 0.0087554725
-0.012692169 -0.00089702907 -0.011902482 0.008364131 -0.0008918806 -0.01917926 -0.06151283 -0.015596961
-0.0146750035 0.0071045617 0.006954893 0.00040814257 0.01437264 0.011285732 -0.012015088 -0.03299137
0.011731165 -0.031191384 -0.011054884 0.011206904 0.007733169 -0.003178799 -0.00082625874 -0.0052420995
-0.0010996294 0.009623914 -0.004745985 0.008582471 -0.0025495791 -0.035377342 0.0048165563 0.015303078
0.028942516 -0.004282858 -0.00014551685 -0.0019198902 -0.0007233764 0.026018966 -0.001541964 -0.005820959
0.004786036 -0.0003987816 -0.03238883 0.0086142095 -0.0012834244 0.0047817035 0.0005947416 -0.020251641
-0.011228626 -0.0035357024 0.0010872601 -0.0015480177 0.002668411 -0.020373726 0.0074963686 -0.009309197
-0.0021030956 -0.03558573 -0.0009758565 0.011135501 -0.006170342 0.0039224024 -0.0015347223 -0.0011140582
0.00054960593 0.00080250605 0.017590834 -0.0019935183 -0.015418989 0.0003789368 0.006040918 0.004882589
0.0042736004 -0.01716701 -0.0010048746 -0.005889867 -0.0060151652 0.0014410164 -0.010517417 0.0006174023
0.0003165779 -0.0042785956 -0.0021824192 -0.00018786227 0.0028507968 0.027349025 -0.002030771 0.0015920119
-0.0058514196 -0.0024676262 0.021499904 0.036369465 -0.0088577345 -0.013082344 0.00034679272 -0.0064559523
-0.007671294 0.024236416 -0.0018780306 0.012027621 -0.0125644775 0.008367096 0.00021832845 5.881863e-05
0.00092223403 0.028537385 -0.008069356 -0.0015728989 0.010103416 -0.0022039704 0.00092386914 -0.00017704912
0.0024934055 -0.0042323307 0.0025383376 -0.001148672 0.0004980001 -0.012602023 -0.012325085 0.008107865
0.012362819 -0.0027329437 -0.00034170822 0.024843331 0.00069118896 0.0045922603 -0.00039271722 7.6244156e-05
0.009367187 -0.0011986629 -0.0074786404 0.0024190631 0.0010478991 0.0012865695 -0.007562915 -0.05037627
-0.016680349 0.00078208355 -0.011374018 0.0005196439 -0.0032728077 0.007313971 -0.0073026274 0.008095183

action_model._continuous_distribution.mu.bias f4 [2]
00000000: 4b95 e53a d0a2 3d3c
0.0017515806 0.011574462

action_model._discrete_distribution.branches.0.weight f4 [1, 128]
00000000: 7a66 e33b 9d74 173c c52b 06bb 9300 c339
00000010: e104 a7b9 bd28 2a3c bd3c 273c 054c f1ba
00000020: 0cbb 463b 776a e8ba bf5a f03b 57cf cc3a
00000030: ebe4 20bc 2de3 b4bb a809 6c3b be8d c9b8
00000040: 9d7b 9f3b fbf6 2c3c 47c5 babb 1882 ea3b
00000050: 754a c73b cf18 4abc 2049 d53b 0e2c b53b
00000060: ac44 85ba 5f2b 96bc d5f0 b1bc a23d 963b
00000070: 8a7c 57bb 9740 f73a 4900 973c afa2 553b
00000080: 1b63 713b 60f7 41bc e056 12bb c04e 4439
00000090: 74cd 263b 0fb8 76bc 83e4 923b c2b1 daba
000000a0: 1d5e babb 1f67 953b 083d d0bb 2be0 0c3c
000000b0: d459 073c 4ac8 8bbb e731 d73a 5b36 18bb
000000c0: ca01 193c 5d77 bd3b c942 363c f2b4 65bc
000000d0: 2c7c 1abc 74ef c93a 5b64 aebb e330 b63c
000000e0: cba8 c93a 78a2 893b e1a8 16bc 9f2d 5ebc
000000f0: c5b6 ecbb b770 7c3a 8523 dd3b baa8 f5bb
00000100: 6c1a 38bb 19d4 0dbb c382 a63c c4f4 88bb
00000110: 2666 02bc 9fee 5a3c c69d 37bb 33af 7bb9
00000120: f7d3 ce3b 331b 1c3c 4e63 a0bb e7d9 f5bb
00000130: 5457 053c cbc3 f73a 52d8 72bc f6e2 193a
00000140: 6084 0bba 1b4a edb8 aca5 2fbc b087 dd3a
00000150: bd4d ce3b 9ccd 133c 771a f6bb f4e8 9d3b
00000160: fb02 8d3a c086 e3bb a60b 193c 1745 bcbb
00000170: 754b a5bb 09ad b73b 6c17 243b e964 afbb
00000180: 3e66 a1bc d682 36bc b733 febb 2c01 4abc
00000190: 19f4 843a 7c3a 373c 9103 8ebc f3cb 263b
000001a0: 4a89 20bc c828 bcbb fe55 803b 84f7 b7bb
000001b0: c49f 953b 1a11 603b 2293 57bb 0591 553b
000001c0: e09e 663b c3c0 0b3b b3f0 6a39 55da 573b
000001d0: 9387 c13b 5942 923a 8d40 243c 2ffc 4b3b
000001e0: af9f 04bb ca64 e3ba cb21 e9bb 47e8 d4bb
000001f0: dbc4 18bc 233d 8fbc c3b4 cbbb 7106 053b
0.0069397064 0.009244111 -0.0020472866 0.00037193726 -0.00031856357 0.010385689 0.010207352 -0.0018409496
0.003032389 -0.0017731924 0.0073350365 0.0015625757 -0.009820203 -0.0055202455 0.0036016498 -9.6108284e-05
0.004867031 0.010556932 -0.005699787 0.0071566217 0.006081874 -0.012335016 0.0065089613 0.0055289334
-0.001016756 -0.018331228 -0.021721283 0.004584984 -0.0032880628 0.0018863854 0.018432753 0.0032598188
0.0036832753 -0.011838764 -0.0022329614 0.00018721353 0.002545205 -0.015058531 0.004482807 -0.0016685056
-0.0056874887 0.004559412 -0.0063549317 0.008598368 0.008261163 -0.0042658197 0.001641807 -0.0023225758
0.009338805 0.0057820515 0.011124321 -0.0140201915 -0.009429019 0.0015406446 -0.005322022 0.022240108
0.0015385387 0.004200276 -0.009195537 -0.013560682 -0.0072239363 0.0009629833 0.006748619 -0.0074969204
-0.002809192 -0.0021641313 0.020326024 -0.004179569 -0.007958924 0.013362556 -0.0028017624 -0.00024002492
0.0063118893 0.009527969 -0.0048946505 -0.0075027826 0.008138496 0.0018902955 -0.014822083 0.00058703066
-0.00053221546 -0.00011314844 -0.010720652 0.00169014 0.006295888 0.009021189 -0.007510479 0.00481903
0.0010758335 -0.0069435537 0.009341156 -0.005745541 -0.0050443956 0.005605344 0.0025038375 -0.0053526056
-0.019702073 -0.011139592 -0.0077576297 -0.012329381 0.0010143548 0.011183377 -0.017335685 0.0025451153
-0.009798357 -0.005742166 0.003916501 -0.005614223 0.0045661647 0.003418988 -0.0032894094 0.003258766
0.0035189912 0.0021324612 0.00022405646 0.0032936533 0.0059060543 0.0011158689 0.010025156 0.0031125655
-0.002023678 -0.0017348763 -0.007114624 -0.006497416 -0.009324278 -0.017485207 -0.006216617 0.0020298029
